learning_rate : 0.0001
max_steps : 5000
batch_size : 32
eval_freq : 500
data_dir : ./cifar10/cifar-10-batches-py
Device: cuda
ConvNet(
  (conv0): Conv2d(3, 64, kernel_size=(3, 3), stride=(1, 1), padding=(1, 1))
  (preact1): Sequential(
    (0): BatchNorm2d(64, eps=1e-05, momentum=0.1, affine=True, track_running_stats=True)
    (1): ReLU()
    (2): Conv2d(64, 64, kernel_size=(3, 3), stride=(1, 1), padding=(1, 1))
  )
  (conv1): Conv2d(64, 128, kernel_size=(1, 1), stride=(1, 1))
  (maxpool1): MaxPool2d(kernel_size=3, stride=2, padding=1, dilation=1, ceil_mode=False)
  (preact2_a): Sequential(
    (0): BatchNorm2d(128, eps=1e-05, momentum=0.1, affine=True, track_running_stats=True)
    (1): ReLU()
    (2): Conv2d(128, 128, kernel_size=(3, 3), stride=(1, 1), padding=(1, 1))
  )
  (conv2): Conv2d(128, 256, kernel_size=(1, 1), stride=(1, 1))
  (maxpool2): MaxPool2d(kernel_size=3, stride=2, padding=1, dilation=1, ceil_mode=False)
  (preact3_a): Sequential(
    (0): BatchNorm2d(256, eps=1e-05, momentum=0.1, affine=True, track_running_stats=True)
    (1): ReLU()
    (2): Conv2d(256, 256, kernel_size=(3, 3), stride=(1, 1), padding=(1, 1))
  )
  (conv3): Conv2d(256, 512, kernel_size=(1, 1), stride=(1, 1))
  (maxpool3): MaxPool2d(kernel_size=3, stride=2, padding=1, dilation=1, ceil_mode=False)
  (preact4_a): Sequential(
    (0): BatchNorm2d(512, eps=1e-05, momentum=0.1, affine=True, track_running_stats=True)
    (1): ReLU()
    (2): Conv2d(512, 512, kernel_size=(3, 3), stride=(1, 1), padding=(1, 1))
  )
  (maxpool4): MaxPool2d(kernel_size=3, stride=2, padding=1, dilation=1, ceil_mode=False)
  (maxpool5): MaxPool2d(kernel_size=3, stride=2, padding=1, dilation=1, ceil_mode=False)
  (batchnorm): BatchNorm2d(512, eps=1e-05, momentum=0.1, affine=True, track_running_stats=True)
  (ReLu): ReLU()
  (linear): Linear(in_features=512, out_features=10, bias=True)
)
STEP 500/5000 | test acc: 0.5732, test loss: 1.2168 | train acc: 0.4640, train loss: 1.5332
STEP 1000/5000 | test acc: 0.6549, test loss: 0.9931 | train acc: 0.6269, train loss: 1.0860
STEP 1500/5000 | test acc: 0.7011, test loss: 0.8588 | train acc: 0.6764, train loss: 0.9371
STEP 2000/5000 | test acc: 0.7397, test loss: 0.7606 | train acc: 0.7446, train loss: 0.7437
…
