dnn_hidden_units : 1024, 512, 256, 64
learning_rate : 0.001
max_steps : 2000
batch_size : 128
eval_freq : 100
data_dir : ./cifar10/cifar-10-batches-py
Device: cuda
OPT: Adam (
Parameter Group 0
    amsgrad: False
    betas: (0.9, 0.999)
    eps: 1e-08
    lr: 0.001
    weight_decay: 0
)
MODEL:
 MLP(
  (layers): ModuleList(
    (0): BatchNorm1d(3072, eps=1e-05, momentum=0.1, affine=True, track_running_stats=True)
    (1): Linear(in_features=3072, out_features=1024, bias=True)
    (2): ELU(alpha=1.0)
    (3): BatchNorm1d(1024, eps=1e-05, momentum=0.1, affine=True, track_running_stats=True)
    (4): Linear(in_features=1024, out_features=512, bias=True)
    (5): ELU(alpha=1.0)
    (6): BatchNorm1d(512, eps=1e-05, momentum=0.1, affine=True, track_running_stats=True)
    (7): Linear(in_features=512, out_features=256, bias=True)
    (8): ELU(alpha=1.0)
    (9): BatchNorm1d(256, eps=1e-05, momentum=0.1, affine=True, track_running_stats=True)
    (10): Linear(in_features=256, out_features=64, bias=True)
    (11): ELU(alpha=1.0)
    (12): BatchNorm1d(64, eps=1e-05, momentum=0.1, affine=True, track_running_stats=True)
    (13): Linear(in_features=64, out_features=10, bias=True)
  )
)
STEP 100/2000 | test acc: 0.3994, test loss: 1.6794 | train acc: 0.3615, train loss: 1.7871
STEP 200/2000 | test acc: 0.4367, test loss: 1.5755 | train acc: 0.4198, train loss: 1.6270
STEP 300/2000 | test acc: 0.4663, test loss: 1.5026 | train acc: 0.4383, train loss: 1.5744
STEP 400/2000 | test acc: 0.4848, test loss: 1.4429 | train acc: 0.4634, train loss: 1.5109
…
