dnn_hidden_units : 1024, 512, 256, 64
learning_rate : 0.001
max_steps : 10000
batch_size : 64
eval_freq : 100
data_dir : ./cifar10/cifar-10-batches-py
Device cuda
MLP(
  (layers): ModuleList(
    (0): BatchNorm1d(3072, eps=1e-05, momentum=0.1, affine=True, track_running_stats=True)
    (1): Linear(in_features=3072, out_features=1024, bias=True)
    (2): ELU(alpha=1.0)
    (3): BatchNorm1d(1024, eps=1e-05, momentum=0.1, affine=True, track_running_stats=True)
    (4): Linear(in_features=1024, out_features=512, bias=True)
    (5): ELU(alpha=1.0)
    (6): BatchNorm1d(512, eps=1e-05, momentum=0.1, affine=True, track_running_stats=True)
    (7): Linear(in_features=512, out_features=256, bias=True)
    (8): ELU(alpha=1.0)
    (9): BatchNorm1d(256, eps=1e-05, momentum=0.1, affine=True, track_running_stats=True)
    (10): Linear(in_features=256, out_features=64, bias=True)
    (11): ELU(alpha=1.0)
    (12): BatchNorm1d(64, eps=1e-05, momentum=0.1, affine=True, track_running_stats=True)
    (13): Linear(in_features=64, out_features=10, bias=True)
  )
)
Train epoch: 1 Test epoch: 1
test acc:0.4939, test loss:1.4388, train loss:1.4253
Train epoch: 2 Test epoch: 2
test acc:0.5100, test loss:1.3849, train loss:1.4441
Train epoch: 3 Test epoch: 3
test acc:0.5369, test loss:1.2982, train loss:1.2310
Train epoch: 4 Test epoch: 4
test acc:0.5473, test loss:1.2760, train loss:1.2521
Train epoch: 5 Test epoch: 5
…
